python/models/model.tflite (tflite, 158576 bytes, 5 tensors)

tfl.pseudo_qconst1 i1 [400, 128]
00000000: 040e 1b20 1bc6 d1dd cce7 0dfa 1b18 e9bc
00000010: fefd e9fd 0ab9 e6e9 bef9 0ffe 03f1 e7df
00000020: d9e3 c381 f2eb e1f8 d702 cdbd ebf9 eace
00000030: f8db ebf4 e001 f61d f7e2 efef 10ea 07ac
00000040: 0603 d3ac f209 ad04 e5f5 0bbe f0a2 16bd
00000050: ed07 07fd 85f7 1006 d1f0 cf18 1001 f3e4
00000060: eede fae5 edfa 040d 0fef edef 050d e9e6
00000070: f212 eaf5 d9ee eff3 f59b e1c4 d4eb edae
00000080: ecfa 04de ecff b1de 0f0d 130d f1f4 09c5
00000090: d90a f21b aeef eaeb aa24 dbf2 e6ff e0ea
000000a0: c3a7 a0ca e3fe d8dd f6e6 1ade da17 e5d1
000000b0: ccd2 ee07 ea01 e6d0 e904 13d4 f2fc 0fca
000000c0: d9f5 05e2 0ae6 fce4 0de1 06d4 ffbf fc0c
000000d0: f5e1 ff14 edeb fa12 fefc c70f e7ea efc3
000000e0: e8f8 e215 db07 df13 01f3 d3f1 1108 1b21
000000f0: f7ce 14e0 e481 24e7 00d3 08c6 cce7 e0b5
4 14 27 32 27 -58 -47 -35
-52 -25 13 -6 27 24 -23 -68
-2 -3 -23 -3 10 -71 -26 -23
-66 -7 15 -2 3 -15 -25 -33
-39 -29 -61 -127 -14 -21 -31 -8
-41 2 -51 -67 -21 -7 -22 -50
-8 -37 -21 -12 -32 1 -10 29
-9 -30 -17 -17 16 -22 7 -84
6 3 -45 -84 -14 9 -83 4
-27 -11 11 -66 -16 -94 22 -67
-19 7 7 -3 -123 -9 16 6
-47 -16 -49 24 16 1 -13 -28
-18 -34 -6 -27 -19 -6 4 13
15 -17 -19 -17 5 13 -23 -26
-14 18 -22 -11 -39 -18 -17 -13
-11 -101 -31 -60 -44 -21 -19 -82
-20 -6 4 -34 -20 -1 -79 -34
15 13 19 13 -15 -12 9 -59
-39 10 -14 27 -82 -17 -22 -21
-86 36 -37 -14 -26 -1 -32 -22
-61 -89 -96 -54 -29 -2 -40 -35
-10 -26 26 -34 -38 23 -27 -47
-52 -46 -18 7 -22 1 -26 -48
-23 4 19 -44 -14 -4 15 -54
-39 -11 5 -30 10 -26 -4 -28
13 -31 6 -44 -1 -65 -4 12
-11 -31 -1 20 -19 -21 -6 18
-2 -4 -57 15 -25 -22 -17 -61
-24 -8 -30 21 -37 7 -33 19
1 -13 -45 -15 17 8 27 33
-9 -50 20 -32 -28 -127 36 -25
0 -45 8 -58 -52 -25 -32 -75

tfl.pseudo_qconst3 i1 [128, 128]
00000000: 28b8 1cae 3bce 6f43 2de7 01f6 d4ee 125a
00000010: ecc8 b844 f762 c57f df82 11cc 06fd 6928
00000020: e7c5 ade5 f542 e4c6 10ca 68ff 06e8 d410
00000030: d74a 1794 5c1e 0313 b671 5d04 e202 2976
00000040: 4231 1bdf 1a77 b464 1e0a 3873 ebce 0d2b
00000050: c5f4 bbd5 1341 f2d3 1d42 5a1a 3d54 38eb
00000060: 30eb e142 a3f0 7a10 97b7 6602 721b e32e
00000070: bdb0 c869 1e01 23c6 2cf2 bddb c8bb c911
00000080: e39a eae8 3eb2 1e2e 32d4 f217 381c 3eab
00000090: 21c6 afc4 e875 5219 cae1 d60e eda6 51c9
000000a0: f876 c7de 9d21 cd68 20c5 2039 46a9 1336
000000b0: 60c5 81c7 fe60 074d fa30 6332 61f1 d908
000000c0: 3f1a d406 c71b 00b9 280a 1033 c734 5bdd
000000d0: e8e3 bacc 0053 f528 0177 2902 445d 18ec
000000e0: d4c9 c03f 026e f2f9 ca16 2a5a 5dff 22b2
000000f0: a424 c6bb e5f6 f9a1 2711 c46f 4d05 44c4
40 -72 28 -82 59 -50 111 67
45 -25 1 -10 -44 -18 18 90
-20 -56 -72 68 -9 98 -59 127
-33 -126 17 -52 6 -3 105 40
-25 -59 -83 -27 -11 66 -28 -58
16 -54 104 -1 6 -24 -44 16
-41 74 23 -108 92 30 3 19
-74 113 93 4 -30 2 41 118
66 49 27 -33 26 119 -76 100
30 10 56 115 -21 -50 13 43
-59 -12 -69 -43 19 65 -14 -45
29 66 90 26 61 84 56 -21
48 -21 -31 66 -93 -16 122 16
-105 -73 102 2 114 27 -29 46
-67 -80 -56 105 30 1 35 -58
44 -14 -67 -37 -56 -69 -55 17
-29 -102 -22 -24 62 -78 30 46
50 -44 -14 23 56 28 62 -85
33 -58 -81 -60 -24 117 82 25
-54 -31 -42 14 -19 -90 81 -55
-8 118 -57 -34 -99 33 -51 104
32 -59 32 57 70 -87 19 54
96 -59 -127 -57 -2 96 7 77
-6 48 99 50 97 -15 -39 8
63 26 -44 6 -57 27 0 -71
40 10 16 51 -57 52 91 -35
-24 -29 -70 -52 0 83 -11 40
1 119 41 2 68 93 24 -20
-44 -55 -64 63 2 110 -14 -7
-54 22 42 90 93 -1 34 -78
-92 36 -58 -69 -27 -10 -7 -95
39 17 -60 111 77 5 68 -60

tfl.pseudo_qconst5 i1 [128, 1, 3, 128]
00000000: f19d f6ec 0b20 40d9 ab32 2201 ecc7 c6fd
00000010: 0e03 faa0 ab11 23e9 07e6 54f6 9e81 410a
00000020: 10af d42c 3218 dfcd 19ec 5606 f6de bc1c
00000030: 4a02 4c01 f324 f2cd f0d6 0226 38fd 051b
00000040: f2ef 1620 ef17 2309 0103 0ebe fc2b 83dc
00000050: 210d 170e 0c99 dfe6 d1b5 1815 d1af c6c0
00000060: d8af 3426 fb0d efaf b5bf 2030 2b9d 59eb
00000070: 02d0 e81a a0bb c0c1 f3ed 3645 f1d4 c3ee
00000080: 10c4 3607 ebf9 fce8 101f dc16 1bec f714
00000090: 00ce 0c08 ed39 0d05 15f5 2f1f d1a8 f616
000000a0: 35f3 18fd 3c19 1209 f901 5225 1271 0343
000000b0: 193d c93b 29f9 34d0 d91f 26ac 341b 51fb
000000c0: f811 21f3 1acb 2710 e709 32f4 4f64 0ea1
000000d0: 2a3f 0209 2dcf 1d19 05d0 0f38 19d7 e512
000000e0: 1330 eed6 f1d5 04c1 0ce6 eb40 3b91 6e07
000000f0: 1bd0 f4a5 9720 03e6 4506 0865 38f5 071a
-15 -99 -10 -20 11 32 64 -39
-85 50 34 1 -20 -57 -58 -3
14 3 -6 -96 -85 17 35 -23
7 -26 84 -10 -98 -127 65 10
16 -81 -44 44 50 24 -33 -51
25 -20 86 6 -10 -34 -68 28
74 2 76 1 -13 36 -14 -51
-16 -42 2 38 56 -3 5 27
-14 -17 22 32 -17 23 35 9
1 3 14 -66 -4 43 -125 -36
33 13 23 14 12 -103 -33 -26
-47 -75 24 21 -47 -81 -58 -64
-40 -81 52 38 -5 13 -17 -81
-75 -65 32 48 43 -99 89 -21
2 -48 -24 26 -96 -69 -64 -63
-13 -19 54 69 -15 -44 -61 -18
16 -60 54 7 -21 -7 -4 -24
16 31 -36 22 27 -20 -9 20
0 -50 12 8 -19 57 13 5
21 -11 47 31 -47 -88 -10 22
53 -13 24 -3 60 25 18 9
-7 1 82 37 18 113 3 67
25 61 -55 59 41 -7 52 -48
-39 31 38 -84 52 27 81 -5
-8 17 33 -13 26 -53 39 16
-25 9 50 -12 79 100 14 -95
42 63 2 9 45 -49 29 25
5 -48 15 56 25 -41 -27 18
19 48 -18 -42 -15 -43 4 -63
12 -26 -21 64 59 -111 110 7
27 -48 -12 -91 -105 32 3 -26
69 6 8 101 56 -11 7 26

tfl.pseudo_qconst7 i1 [128, 1, 3, 32]
00000000: a0be 1e39 eaeb ea31 3bff 5318 ede0 2aa0
00000010: f7e8 cfee 1926 2b06 3cbc 0b48 f4f8 e2ea
00000020: 8aea 070a ba2e 4a3d 33af 7464 06bd be0e
00000030: 81c9 4713 fc08 dda1 cbc9 efed d9dc 53f7
00000040: 1346 27ea eae2 c616 4711 0c2a 0ce8 cb10
00000050: 1d14 441e eb06 f9ee c2e7 3527 beca 2901
00000060: 1d64 da41 e114 2f92 1e67 00fd 30c6 cbcb
00000070: 6407 c9dc 7fdc 12c5 edfe d832 42ba 3a3a
00000080: 2b41 c81d d12a 088e e160 a395 e1d7 1522
00000090: 17f7 9259 710e 9df8 edce c40c 6f29 2c14
000000a0: f932 2784 2db1 ec91 14c9 df21 b8d0 cb30
000000b0: fcbd cf59 3d1b b7fa 0ed1 a654 f343 d0f2
000000c0: 708e 7f1d c6e9 d30a 17e7 3037 dc59 e8ef
000000d0: 79e8 339e cb2c 7ed2 a2d4 0c8d dad1 ab48
000000e0: 3de3 28db f1c9 3799 515d e5c4 dfcd e525
000000f0: 31ad 6abb 5112 2aa5 2cef ccd2 b726 ed18
-96 -66 30 57 -22 -21 -22 49
59 -1 83 24 -19 -32 42 -96
-9 -24 -49 -18 25 38 43 6
60 -68 11 72 -12 -8 -30 -22
-118 -22 7 10 -70 46 74 61
51 -81 116 100 6 -67 -66 14
-127 -55 71 19 -4 8 -35 -95
-53 -55 -17 -19 -39 -36 83 -9
19 70 39 -22 -22 -30 -58 22
71 17 12 42 12 -24 -53 16
29 20 68 30 -21 6 -7 -18
-62 -25 53 39 -66 -54 41 1
29 100 -38 65 -31 20 47 -110
30 103 0 -3 48 -58 -53 -53
100 7 -55 -36 127 -36 18 -59
-19 -2 -40 50 66 -70 58 58
43 65 -56 29 -47 42 8 -114
-31 96 -93 -107 -31 -41 21 34
23 -9 -110 89 113 14 -99 -8
-19 -50 -60 12 111 41 44 20
-7 50 39 -124 45 -79 -20 -111
20 -55 -33 33 -72 -48 -53 48
-4 -67 -49 89 61 27 -73 -6
14 -47 -90 84 -13 67 -48 -14
112 -114 127 29 -58 -23 -45 10
23 -25 48 55 -36 89 -24 -17
121 -24 51 -98 -53 44 126 -46
-94 -44 12 -115 -38 -47 -85 72
61 -29 40 -37 -15 -55 55 -103
81 93 -27 -60 -33 -51 -27 37
49 -83 106 -69 81 18 42 -91
44 -17 -52 -46 -73 38 -19 24

tfl.pseudo_qconst8 i1 [62, 32] scale=0.003598156 zero_point=7
00000000: 082c 24ed 20e6 12f9 f0d9 f823 fb04 0b13
00000010: 02ed 0321 11f1 251f 1df7 1c0c 153a f419
00000020: 00dc ee41 af5f 20d5 0410 01e6 e9ee d0c9
00000030: 4c30 ecac f42a 0dc2 25fe 1fc2 d0e0 b16d
00000040: f5e7 ca35 d11d 0bf3 0c4d debc f6e7 08c9
00000050: 460e cf06 0423 0df2 21f1 0801 08d5 0414
00000060: 06e4 f717 e54a 461f 566e accf 38e4 c270
00000070: 370a 1f27 ed1e f3d9 2914 cde6 b620 d2f5
00000080: 19b9 4a08 36d7 fbf9 35ff 131e f748 24e6
00000090: 2c3b 25dd e312 432f e9c3 e8e6 04c1 e20a
000000a0: 201a f903 ec01 cc04 0240 0a15 f614 ee05
000000b0: 46fd fbfa 1749 321a 1110 ee11 fff6 08f8
000000c0: 01f4 1ce8 1804 2804 18f0 1200 0cf4 0413
000000d0: 03f1 0a1b 0cfe f1f2 07f6 f020 f925 16e5
000000e0: 00cc ff12 e70f 040b dfe9 1f18 e61e 571a
000000f0: ee15 090c d7f1 1e10 d124 16ed 43d7 3328
0.003598156 0.13313177 0.10434652 -0.09355205 0.0899539 -0.11873914 0.039579716 -0.050374184
-0.082757585 -0.16551517 -0.053972337 0.10074837 -0.043177873 -0.010794468 0.014392624 0.043177873
-0.01799078 -0.09355205 -0.014392624 0.09355205 0.03598156 -0.07915943 0.107944675 0.086355746
0.07915943 -0.057570495 0.07556128 0.01799078 0.050374184 0.18350595 -0.06836496 0.06476681
-0.025187092 -0.15472071 -0.0899539 0.20869304 -0.31663772 0.31663772 0.0899539 -0.1799078
-0.010794468 0.032383405 -0.021588936 -0.11873914 -0.107944675 -0.0899539 -0.19789858 -0.22308567
0.24827276 0.14752439 -0.09715021 -0.3274322 -0.06836496 0.12593545 0.021588936 -0.24827276
0.107944675 -0.032383405 0.086355746 -0.24827276 -0.19789858 -0.14032808 -0.30944142 0.3670119
-0.06476681 -0.11514099 -0.21948752 0.16551517 -0.19430041 0.07915943 0.014392624 -0.07196312
0.01799078 0.2518709 -0.14752439 -0.2698617 -0.061168652 -0.11514099 0.003598156 -0.22308567
0.22668383 0.025187092 -0.20149674 -0.003598156 -0.010794468 0.10074837 0.021588936 -0.07556128
0.09355205 -0.07915943 0.003598156 -0.021588936 0.003598156 -0.1799078 -0.010794468 0.046776026
-0.003598156 -0.12593545 -0.057570495 0.057570495 -0.122337304 0.24107644 0.22668383 0.086355746
0.2842543 0.37061006 -0.3274322 -0.20149674 0.17630965 -0.12593545 -0.24827276 0.37780637
0.17271149 0.010794468 0.086355746 0.11514099 -0.09355205 0.082757585 -0.07196312 -0.16551517
0.122337304 0.046776026 -0.20869304 -0.11873914 -0.29145062 0.0899539 -0.19070226 -0.06476681
0.06476681 -0.28065616 0.24107644 0.003598156 0.16911332 -0.17271149 -0.043177873 -0.050374184
0.16551517 -0.028785247 0.043177873 0.082757585 -0.057570495 0.23388013 0.10434652 -0.11873914
0.13313177 0.1871041 0.107944675 -0.15112256 -0.12953362 0.039579716 0.21588935 0.14392623
-0.107944675 -0.24467461 -0.111542836 -0.11873914 -0.010794468 -0.2518709 -0.13313177 0.010794468
0.0899539 0.06836496 -0.050374184 -0.014392624 -0.09715021 -0.021588936 -0.2122912 -0.010794468
-0.01799078 0.20509489 0.010794468 0.050374184 -0.061168652 0.046776026 -0.0899539 -0.007196312
0.22668383 -0.03598156 -0.043177873 -0.046776026 0.057570495 0.23747829 0.15472071 0.06836496
0.03598156 0.032383405 -0.0899539 0.03598156 -0.028785247 -0.061168652 0.003598156 -0.053972337
-0.021588936 -0.06836496 0.07556128 -0.111542836 0.061168652 -0.010794468 0.11873914 -0.010794468
0.061168652 -0.082757585 0.039579716 -0.025187092 0.01799078 -0.06836496 -0.010794468 0.043177873
-0.014392624 -0.07915943 0.010794468 0.07196312 0.01799078 -0.032383405 -0.07915943 -0.07556128
0.0 -0.061168652 -0.082757585 0.0899539 -0.050374184 0.107944675 0.053972337 -0.122337304
-0.025187092 -0.2122912 -0.028785247 0.039579716 -0.11514099 0.028785247 -0.010794468 0.014392624
-0.14392623 -0.107944675 0.086355746 0.061168652 -0.11873914 0.082757585 0.28785247 0.06836496
-0.0899539 0.050374184 0.007196312 0.01799078 -0.17271149 -0.07915943 0.082757585 0.032383405
-0.19430041 0.10434652 0.053972337 -0.09355205 0.21588935 -0.17271149 0.15831886 0.11873914
