python/models/model.tflite (tflite, 709136 bytes, 5 tensors)

tfl.pseudo_qconst1 i1 [3928, 128]
000000 09 e2 f3 e1 05 0c fc 06 ca f4 dc e0 cf bd 10 b5
       9 -30 -13 -31 5 12 -4 6 -54 -12 -36 -32 -49 -67 16 -75
000010 e9 dd fd 03 fe a1 00 d6 f6 cd 0f f5 08 07 f3 f1
       -23 -35 -3 3 -2 -95 0 -42 -10 -51 15 -11 8 7 -13 -15
000020 cf 0f 05 da da cd c2 e6 e7 e1 c9 dc c4 f6 db d5
       -49 15 5 -38 -38 -51 -62 -26 -25 -31 -55 -36 -60 -10 -37 -43
000030 de cf de 10 ca f8 e0 e1 02 ed 09 0d ee f2 e2 ba
       -34 -49 -34 16 -54 -8 -32 -31 2 -19 9 13 -18 -14 -30 -70
000040 fe 81 e0 e9 f9 e6 df c5 a0 e3 cb c5 c3 08 c4 01
       -2 -127 -32 -23 -7 -26 -33 -59 -96 -29 -53 -59 -61 8 -60 1
000050 fc 9a da de fa 0f d6 da f8 0f f8 f3 ca ff d4 ff
       -4 -102 -38 -34 -6 15 -42 -38 -8 15 -8 -13 -54 -1 -44 -1
000060 d1 81 c9 c8 b5 f7 dd 02 f6 a2 0c 04 f7 c4 d7 f0
       -47 -127 -55 -56 -75 -9 -35 2 -10 -94 12 4 -9 -60 -41 -16
000070 04 df 00 f8 0c fe f2 d5 cf d7 08 a9 ee 05 d7 cc
       4 -33 0 -8 12 -2 -14 -43 -49 -41 8 -87 -18 5 -41 -52
000080 08 d1 fe d4 01 0e f2 fa da fb eb cc c7 bc 0c cb
       8 -47 -2 -44 1 14 -14 -6 -38 -5 -21 -52 -57 -68 12 -53
000090 f1 d7 ff ee f4 81 01 d0 0d c1 03 0e 0b f7 eb 11
       -15 -41 -1 -18 -12 -127 1 -48 13 -63 3 14 11 -9 -21 17
0000a0 d1 06 f0 cd d1 c4 dc dd d8 ce cd db a9 ff e5 e4
       -47 6 -16 -51 -47 -60 -36 -35 -40 -50 -51 -37 -87 -1 -27 -28
0000b0 ce c9 c7 0e de ef db c5 00 f8 f5 f4 0a 08 dc ba
       -50 -55 -57 14 -34 -17 -37 -59 0 -8 -11 -12 10 8 -36 -70
0000c0 fc 8e d5 de f2 e6 04 c7 a3 d7 e3 c5 b1 04 c9 f6
       -4 -114 -43 -34 -14 -26 4 -57 -93 -41 -29 -59 -79 4 -55 -10
0000d0 04 9f d1 c7 0a fc e2 df fd ee f3 d8 b9 00 cb ee
       4 -97 -47 -57 10 -4 -30 -33 -3 -18 -13 -40 -71 0 -53 -18
0000e0 c7 88 c2 d5 af f2 c6 ee fe 97 f8 09 03 bc d0 01
       -57 -120 -62 -43 -81 -14 -58 -18 -2 -105 -8 9 3 -68 -48 1
0000f0 f0 e4 e9 fb ff e1 fe bc c1 d1 fd 9b fb fd da c4
       -16 -28 -23 -5 -1 -31 -2 -68 -63 -47 -3 -101 -5 -3 -38 -60

tfl.pseudo_qconst3 i1 [128, 128]
000000 8f 7e fe 63 b7 6a 9c 4d 07 b0 2f 0b 6e ab 5a 8f
       -113 126 -2 99 -73 106 -100 77 7 -80 47 11 110 -85 90 -113
000010 41 24 95 c8 58 9d c8 96 aa 47 44 60 da dd 1a c2
       65 36 -107 -56 88 -99 -56 -106 -86 71 68 96 -38 -35 26 -62
000020 9c d6 1e 9c 1c d9 cc 13 2f 4d 38 18 b8 f7 42 e7
       -100 -42 30 -100 28 -39 -52 19 47 77 56 24 -72 -9 66 -25
000030 22 5b ca c6 89 0d 55 ab e8 40 87 81 ec b5 ed 93
       34 91 -54 -58 -119 13 85 -85 -24 64 -121 -127 -20 -75 -19 -109
000040 d9 9f 15 0d 08 e8 ab fa 9c de d1 04 08 cf 7c 8f
       -39 -97 21 13 8 -24 -85 -6 -100 -34 -47 4 8 -49 124 -113
000050 0b 90 e3 bb 7e 57 d8 5b 99 98 41 84 fa ee b7 a6
       11 -112 -29 -69 126 87 -40 91 -103 -104 65 -124 -6 -18 -73 -90
000060 41 3a ad 4a 6f 72 fd 02 8f bc a9 5d 0f a4 a4 30
       65 58 -83 74 111 114 -3 2 -113 -68 -87 93 15 -92 -92 48
000070 f2 e6 ce 98 07 c7 fb c6 6b 92 24 ba 3f 01 0a bc
       -14 -26 -50 -104 7 -57 -5 -58 107 -110 36 -70 63 1 10 -68
000080 07 7f d3 1e 22 ff de 0c 14 ee da 2d ee ed 1c 2d
       7 127 -45 30 34 -1 -34 12 20 -18 -38 45 -18 -19 28 45
000090 e7 e9 15 29 e4 f2 f7 19 1d 0d 1e 1c cf dd 1a e9
       -25 -23 21 41 -28 -14 -9 25 29 13 30 28 -49 -35 26 -23
0000a0 28 11 15 e3 0f f5 fb 1a e0 1f 1a e9 09 0f 0d f9
       40 17 21 -29 15 -11 -5 26 -32 31 26 -23 9 15 13 -7
0000b0 21 19 f3 08 e6 e7 04 ed 00 ff f8 f7 ec e6 da 00
       33 25 -13 8 -26 -25 4 -19 0 -1 -8 -9 -20 -26 -38 0
0000c0 3e eb 17 20 25 01 33 f7 ee e0 e1 11 11 14 09 1c
       62 -21 23 32 37 1 51 -9 -18 -32 -31 17 17 20 9 28
0000d0 fa 23 01 28 f6 15 e7 fd 0d 20 0d ff fc e4 f5 14
       -6 35 1 40 -10 21 -25 -3 13 32 13 -1 -4 -28 -11 20
0000e0 ec 1c a5 10 42 f8 d0 31 e7 ed e8 21 0d e7 e8 11
       -20 28 -91 16 66 -8 -48 49 -25 -19 -24 33 13 -25 -24 17
0000f0 ef fd fa e4 00 11 d6 ff f3 0d d8 db 23 0e 0d e0
       -17 -3 -6 -28 0 17 -42 -1 -13 13 -40 -37 35 14 13 -32

tfl.pseudo_qconst5 i1 [128, 1, 3, 128]
000000 d9 17 a2 d4 21 ec a1 02 2a 06 03 44 2b 05 08 3f
       -39 23 -94 -44 33 -20 -95 2 42 6 3 68 43 5 8 63
000010 34 eb f8 04 10 18 2a d8 3c 46 ff 29 0c fe 25 21
       52 -21 -8 4 16 24 42 -40 60 70 -1 41 12 -2 37 33
000020 00 f5 0e f1 ff 04 06 28 28 ce f2 ec 2d f3 38 f6
       0 -11 14 -15 -1 4 6 40 40 -50 -14 -20 45 -13 56 -10
000030 17 fc 22 48 17 e2 d6 1b da 00 d1 27 05 1d 13 0d
       23 -4 34 72 23 -30 -42 27 -38 0 -47 39 5 29 19 13
000040 c7 d5 37 08 0d fd a8 0d 3c 20 e3 d6 e1 b2 1e ee
       -57 -43 55 8 13 -3 -88 13 60 32 -29 -42 -31 -78 30 -18
000050 b1 c5 ed 00 0f c5 f3 f7 04 cf 18 a0 13 19 02 33
       -79 -59 -19 0 15 -59 -13 -9 4 -49 24 -96 19 25 2 51
000060 02 fe 14 1a 1a 28 a3 14 32 18 e7 1d 2d 24 f5 e7
       2 -2 20 26 26 40 -93 20 50 24 -25 29 45 36 -11 -25
000070 09 2c 33 39 e9 33 f7 1f 26 2e 0d 1e 20 0c f0 f1
       9 44 51 57 -23 51 -9 31 38 46 13 30 32 12 -16 -15
000080 d5 13 24 d5 23 ed c4 05 2f 14 ee 01 0e 45 3d 0b
       -43 19 36 -43 35 -19 -60 5 47 20 -18 1 14 69 61 11
000090 30 12 38 f2 16 2d 2d 09 0c 3d 00 de 03 dc 1c 3c
       48 18 56 -14 22 45 45 9 12 61 0 -34 3 -36 28 60
0000a0 1f bc 25 13 18 e1 2b f9 25 d8 0e 13 28 f3 08 22
       31 -68 37 19 24 -31 43 -7 37 -40 14 19 40 -13 8 34
0000b0 40 df 07 42 27 04 09 35 f1 f9 0d 05 1b f9 2b 0e
       64 -33 7 66 39 4 9 53 -15 -7 13 5 27 -7 43 14
0000c0 c6 1a 09 39 13 f4 f2 0d 3e 03 d2 d3 d5 fc 46 28
       -58 26 9 57 19 -12 -14 13 62 3 -46 -45 -43 -4 70 40
0000d0 e2 1d e4 f9 ff dd ec 08 36 d2 38 db 10 04 28 ee
       -30 29 -28 -7 -1 -35 -20 8 54 -46 56 -37 16 4 40 -18
0000e0 27 16 ed 0a 39 27 d6 f3 37 08 17 03 14 0f 0e e5
       39 22 -19 10 57 39 -42 -13 55 8 23 3 20 15 14 -27
0000f0 21 0e 04 22 07 2c 04 f6 14 ff 16 3d 12 ed 08 d3
       33 14 4 34 7 44 4 -10 20 -1 22 61 18 -19 8 -45

tfl.pseudo_qconst7 i1 [128, 1, 3, 32]
000000 04 16 46 fd 21 38 59 18 30 30 d4 f4 24 ec 13 3f
       4 22 70 -3 33 56 89 24 48 48 -44 -12 36 -20 19 63
000010 34 f2 f5 14 19 dc ec 45 e4 12 32 af f8 5b 16 16
       52 -14 -11 20 25 -36 -20 69 -28 18 50 -81 -8 91 22 22
000020 f9 3d 45 19 d3 0f 5d 13 25 e0 2c b2 e3 f8 52 47
       -7 61 69 25 -45 15 93 19 37 -32 44 -78 -29 -8 82 71
000030 4c 18 01 ec ca cd ce 38 dc f9 47 81 ff 2e e0 d5
       76 24 1 -20 -54 -51 -50 56 -36 -7 71 -127 -1 46 -32 -43
000040 95 31 de 4c c5 bc 3d fb d4 df e6 e7 f3 3f 0a ed
       -107 49 -34 76 -59 -68 61 -5 -44 -33 -26 -25 -13 63 10 -19
000050 4b 6d 63 c2 96 1b b8 09 2b ca c5 99 ec 09 db a9
       75 109 99 -62 -106 27 -72 9 43 -54 -59 -103 -20 9 -37 -87
000060 54 c1 f1 f2 04 29 d6 28 57 09 06 02 ef ba 0a 5c
       84 -63 -15 -14 4 41 -42 40 87 9 6 2 -17 -70 10 92
000070 d5 0a fd 41 26 e7 fd 5d ba fe 4d d5 02 d8 4b 2e
       -43 10 -3 65 38 -25 -3 93 -70 -2 77 -43 2 -40 75 46
000080 b4 9c b0 26 ef dd 97 35 d8 ca 10 2b 0b 02 df 12
       -76 -100 -80 38 -17 -35 -105 53 -40 -54 16 43 11 2 -33 18
000090 fe 7f 29 ce cf 16 da c6 03 b4 f7 2a ed e5 39 da
       -2 127 41 -50 -49 22 -38 -58 3 -76 -9 42 -19 -27 57 -38
0000a0 78 b7 12 d5 17 ef ed 36 06 df 03 f5 cf b2 2d ff
       120 -73 18 -43 23 -17 -19 54 6 -33 3 -11 -49 -78 45 -1
0000b0 d5 fa ec f0 11 0d 3c 28 ef 29 19 17 f8 0b 1a 1b
       -43 -6 -20 -16 17 13 60 40 -17 41 25 23 -8 11 26 27
0000c0 eb d9 38 0a de 22 15 26 ff ec 0c 13 19 cc 05 44
       -21 -39 56 10 -34 34 21 38 -1 -20 12 19 25 -52 5 68
0000d0 40 fe 43 f6 da 2e ca 24 88 e7 44 10 32 dd f6 b2
       64 -2 67 -10 -38 46 -54 36 -120 -25 68 16 50 -35 -10 -78
0000e0 f7 8f 25 35 dc e7 9e 0f 08 d2 50 6f 21 ac bb c2
       -9 -113 37 53 -36 -25 -98 15 8 -46 80 111 33 -84 -69 -62
0000f0 47 2c 55 00 ca 5c e8 0c 93 11 03 7f 56 b8 1c e3
       71 44 85 0 -54 92 -24 12 -109 17 3 127 86 -72 28 -29

tfl.pseudo_qconst8 i1 [68, 32] scale=0.005181754 zero_point=-4
000000 fd db fc f7 0f 0d f3 09 0c 05 cb 0e dc 05 01 11
       0.005181754 -0.17099789 0.0 -0.02590877 0.09845333 0.088089816 -0.046635784 0.0673628 0.082908064 0.046635784 -0.25390595 0.09327157 -0.16581613 0.046635784 0.02590877 0.10881683
000010 d4 e9 da 26 2a 13 2c e6 0a 10 0b fe d5 d8 25 eb
       -0.20727016 -0.09845333 -0.17617963 0.21763366 0.23836069 0.119180344 0.24872419 -0.11399859 0.07254456 0.10363508 0.07772631 0.010363508 -0.2020884 -0.18654314 0.21245192 -0.088089816
000020 f4 f3 f8 00 fd 05 f3 f7 fb 05 fa 04 f7 02 01 f4
       -0.041454032 -0.046635784 -0.020727016 0.020727016 0.005181754 0.046635784 -0.046635784 -0.02590877 -0.005181754 0.046635784 -0.010363508 0.041454032 -0.02590877 0.031090524 0.02590877 -0.041454032
000030 fc fb 03 f8 fb fa fa f3 fb f5 f3 05 05 fa 05 00
       0.0 -0.005181754 0.03627228 -0.020727016 -0.005181754 -0.010363508 -0.010363508 -0.046635784 -0.005181754 -0.03627228 -0.046635784 0.046635784 0.046635784 -0.010363508 0.046635784 0.020727016
000040 f6 01 e5 0a f9 00 06 16 03 ef eb e8 e9 f9 12 fc
       -0.031090524 0.02590877 -0.119180344 0.07254456 -0.015545262 0.020727016 0.05181754 0.1347256 0.03627228 -0.0673628 -0.088089816 -0.10363508 -0.09845333 -0.015545262 0.11399859 0.0
000050 fb 0c 01 fa f4 02 f8 f5 07 f0 f8 db de ee 0a f0
       -0.005181754 0.082908064 0.02590877 -0.010363508 -0.041454032 0.031090524 -0.020727016 -0.03627228 0.056999296 -0.062181048 -0.020727016 -0.17099789 -0.15545262 -0.07254456 0.07254456 -0.062181048
000060 04 f0 0c f3 07 fd 0d 00 06 ff 18 07 f7 f4 0e 0e
       0.041454032 -0.062181048 0.082908064 -0.046635784 0.056999296 0.005181754 0.088089816 0.020727016 0.05181754 0.015545262 0.14508912 0.056999296 -0.02590877 -0.041454032 0.09327157 0.09327157
000070 f1 fb ef ff 15 08 09 08 e4 05 0e eb e1 01 06 04
       -0.056999296 -0.005181754 -0.0673628 0.015545262 0.12954386 0.062181048 0.0673628 0.062181048 -0.124362096 0.046635784 0.09327157 -0.088089816 -0.13990736 0.02590877 0.05181754 0.041454032
000080 26 ab 0d f1 31 11 e8 30 2f 18 13 3c 06 b4 cf ed
       0.21763366 -0.41972208 0.088089816 -0.056999296 0.27463296 0.10881683 -0.10363508 0.2694512 0.26426944 0.14508912 0.119180344 0.33163226 0.05181754 -0.37308627 -0.23317893 -0.07772631
000090 11 1f 12 16 fc fb 02 41 b2 1d 16 41 49 fe 0f 0d
       0.10881683 0.18136139 0.11399859 0.1347256 0.0 -0.005181754 0.031090524 0.35754102 -0.3834498 0.17099789 0.1347256 0.35754102 0.39899507 0.010363508 0.09845333 0.088089816
0000a0 fa f4 ff f7 f4 fe f9 06 01 02 fb fc f3 fc f4 05
       -0.010363508 -0.041454032 0.015545262 -0.02590877 -0.041454032 0.010363508 -0.015545262 0.05181754 0.02590877 0.031090524 -0.005181754 0.0 -0.046635784 0.0 -0.041454032 0.046635784
0000b0 00 05 02 f4 f4 01 02 f9 f5 f8 fe 01 f3 f8 01 03
       0.020727016 0.046635784 0.031090524 -0.041454032 -0.041454032 0.02590877 0.031090524 -0.015545262 -0.03627228 -0.020727016 0.010363508 0.02590877 -0.046635784 -0.020727016 0.02590877 0.03627228
0000c0 07 e1 10 f3 0d 12 fb 05 0a fd ee 04 04 f1 03 16
       0.056999296 -0.13990736 0.10363508 -0.046635784 0.088089816 0.11399859 -0.005181754 0.046635784 0.07254456 0.005181754 -0.07254456 0.041454032 0.041454032 -0.056999296 0.03627228 0.1347256
0000d0 eb e1 f4 13 0e fe 04 ff e9 07 0c f8 08 fe 12 10
       -0.088089816 -0.13990736 -0.041454032 0.119180344 0.09327157 0.010363508 0.041454032 0.015545262 -0.09845333 0.056999296 0.082908064 -0.020727016 0.062181048 0.010363508 0.11399859 0.10363508
0000e0 fd e3 13 ee 09 00 06 0d 02 0a ef 0c ee 02 14 15
       0.005181754 -0.12954386 0.119180344 -0.07254456 0.0673628 0.020727016 0.05181754 0.088089816 0.031090524 0.07254456 -0.0673628 0.082908064 -0.07254456 0.031090524 0.124362096 0.12954386
0000f0 e9 f0 ea 10 06 08 0d 0d e4 0c 05 ec 08 f1 12 ed
       -0.09845333 -0.062181048 -0.09327157 0.10363508 0.05181754 0.062181048 0.088089816 0.088089816 -0.124362096 0.082908064 0.046635784 -0.082908064 0.062181048 -0.056999296 0.11399859 -0.07772631
